ml-service/models/model_productivity_nn.pth (torch, 14269 bytes, 5 tensors)

model.0.weight f4 [64, 9]
000000 15 15 b7 3e 48 6d d8 3d 66 c8 86 be 58 06 c3 3e
       0.35758272 0.10567719 -0.26324767 0.38090777
000010 28 27 8e bd c8 21 6d bd 62 22 a7 be c1 dc 9a 3e
       -0.06941062 -0.057893544 -0.3264342 0.30246547
000020 0a 62 05 3f 7d 3c 64 be 85 83 9f 3e da 4c ad 3c
       0.5210272 -0.222887 0.3115503 0.02115481
000030 c3 a2 8f 3e 50 4b 91 3d e6 93 ff 3c 81 f6 f2 bd
       0.28053865 0.07094443 0.031198453 -0.11863423
000040 fc ce 88 3e dd e4 09 bd 4e 7e 69 be ff 86 0d 3e
       0.26720417 -0.033665527 -0.22802088 0.13821028
000050 4f 99 4e be 31 1f 85 bd 38 b0 30 be 68 80 b6 3e
       -0.2017567 -0.0650009 -0.17254722 0.3564484
000060 34 3f a3 be c7 64 a0 be 48 2c a8 3d 3d d1 67 be
       -0.31884158 -0.31326887 0.08211571 -0.22638412
000070 44 da 14 be 36 bb dd be e8 33 f0 3e f6 12 02 be
       -0.14536387 -0.43306893 0.469146 -0.12702546
000080 47 ba 00 3e 96 5f 5a 3e 74 0f 23 be ea 16 08 3f
       0.12571059 0.21325526 -0.15923864 0.53159964
000090 d1 7a 0d 3e 56 d5 9c 3e f8 27 be bc 83 d2 05 3c
       0.13816382 0.30631512 -0.023212418 0.008167866
0000a0 9e 92 e5 3d c8 79 4e be 88 0b e9 3d 58 96 68 3e
       0.11209606 -0.20163643 0.113791525 0.22713602
0000b0 ad ec f7 3d 4b fc 62 3d a6 36 50 3e 03 94 14 be
       0.12105689 0.055416387 0.20333347 -0.14509587
0000c0 6e 2a 3d 3d ce b3 24 bf ac 8d 29 3d 42 f0 ca be
       0.046183042 -0.6433686 0.041394874 -0.39636427
0000d0 af 3b 80 be 85 e0 9e 3e 27 6c c0 3d f8 e8 03 3e
       -0.25045535 0.3103067 0.093956284 0.1288184
0000e0 93 b7 f7 3c 6e 39 e7 3d b0 6e 9c 3e 3c 5f ab be
       0.030238902 0.11290251 0.30553198 -0.33471096
0000f0 39 bc 8e 3d 2d 16 94 be f0 ee e0 3e 3f 6c 66 bd
       0.069694944 -0.2892317 0.43932295 -0.056255575
000100 92 95 0e 3e 31 85 5e bd 32 d3 8e 3e 22 8b 67 be
       0.13924244 -0.05432624 0.27895504 -0.22611669
000110 d0 36 8b be 06 12 98 be 2e 0c a8 3e 3a 96 66 bd
       -0.27190256 -0.2970125 0.32821792 -0.05629561
000120 02 1c b7 3e c2 7d c1 be a2 1a dd be 96 34 5a be
       0.35763556 -0.37791258 -0.43184382 -0.21309122
000130 86 98 61 be 5c 8b e6 bd cc ec d3 bc 0a 9d 81 3e
       -0.2203084 -0.112570494 -0.02586975 0.25315124
000140 0a 22 8c be 51 cc 18 be d2 57 6c 3e 66 3b 86 bd
       -0.2736972 -0.1492169 0.23080376 -0.06554298
000150 a2 cd 4a 3e e6 42 3f bc 10 90 a3 3d 57 bd 80 be
       0.19805005 -0.011673665 0.07986462 -0.25144455
000160 a2 97 e7 bd de bb e1 3c 48 d8 bb 3e a6 4e 63 be
       -0.113082185 0.027555402 0.36688447 -0.22197971
000170 dc 16 2c 3e f2 f4 f8 3e ea 86 a2 bf 69 21 70 3d
       0.16805595 0.48624378 -1.2697423 0.058625612
000180 db fd fa 3d b1 73 be 3d 94 d0 8e bd 5c 5b a4 be
       0.1225545 0.0929941 -0.06973377 -0.32100952
000190 cd 27 5d be 73 9c ad 3c f2 3d 32 bd b5 31 ba bd
       -0.21597214 0.021192765 -0.043516107 -0.09091512
0001a0 d9 60 e8 bd e4 27 7b be 03 f3 b7 be 1b 9c 14 be
       -0.11346597 -0.24526936 -0.3592759 -0.14512675
0001b0 fe c2 93 be 6d 92 29 be a6 c2 9b 3e ad 72 2b 3e
       -0.28859705 -0.16559763 0.30421942 0.16742964
0001c0 99 70 1d 3e 58 f2 d7 be 73 f4 60 be 11 61 f4 bd
       0.15374984 -0.4217708 -0.2196825 -0.119325764
0001d0 82 ed 87 3c c1 ca 3a be c9 ec ec bd 91 1a 4f be
       0.016592745 -0.18241407 -0.11568601 -0.20224978
0001e0 31 4f 11 be c2 ad 79 be a7 ca 12 be 94 57 84 be
       -0.14190365 -0.2438269 -0.14335118 -0.25848067
0001f0 b6 b5 6f be c7 5c 7c be bd bb 16 bd 6b 23 31 be
       -0.23409161 -0.24644767 -0.036800135 -0.17298667
000200 6e 57 71 3e 9f ec fe bb 79 c9 3a 3e 93 ee c7 bc
       0.23568508 -0.0077796723 0.18240918 -0.024405753
000210 74 08 c5 be 42 d2 3f 3e db 86 cc be 63 37 52 bd
       -0.38483012 0.1873255 -0.39946637 -0.051322352
000220 13 75 b0 be d7 9d cd be 9c 16 2b 3e d7 db 92 bd
       -0.3446432 -0.40159485 0.16707844 -0.071708374
000230 1c 1f 31 bd 90 09 b9 be ad 90 88 3e 44 87 ce be
       -0.04324256 -0.36140108 0.2667288 -0.40337574
000240 65 c0 ee bd cd ae 82 3c 2f 25 fe 3d b5 44 b2 3e
       -0.1165779 0.015952492 0.12409436 0.34818044
000250 ab 60 f3 3e 70 7d ba be 85 48 0e 3e c2 d5 60 be
       0.4753469 -0.36423826 0.13894852 -0.21956542
000260 c4 02 0a 3f 5e be 20 be 67 a3 db 3e df de 1d be
       0.5391047 -0.1569762 0.42898104 -0.1541705
000270 46 2c 64 3e 6a d5 0f 3e 5f b7 62 bb 5d 88 8f be
       0.22282514 0.14046255 -0.003459416 -0.28033724
000280 97 55 9e 3e ac f2 2d 3d b3 e0 fc be c7 d2 36 be
       0.30924675 0.042467758 -0.49390182 -0.17853843
000290 fd 8d 98 3e 06 88 9e bc f2 1f ed 3c 28 a8 94 3e
       0.29795828 -0.01935197 0.028945897 0.29034543
0002a0 d0 e8 ec bc f1 59 7b be af 6f 2c be a0 17 87 bf
       -0.028919607 -0.24546029 -0.16839479 -1.0554085
0002b0 8d d2 a0 3e a0 4d fd 3d 10 19 3f 3e 9b b7 68 be
       0.31410637 0.123683214 0.18661904 -0.2272629
0002c0 e7 b4 95 be 0e ca a0 3e a2 60 68 3e 0b 32 f3 be
       -0.2923958 0.31404155 0.22693112 -0.47499117
0002d0 6d 77 b5 bd 5f b5 b9 bd 2d cf 14 ba c3 be 46 be
       -0.08860669 -0.09067797 -0.00056766236 -0.19408707
0002e0 cb ee f5 3c bd 27 c9 3e ad 7c 2f 3d df 41 14 3e
       0.030021092 0.3928813 0.04284351 0.14478253
0002f0 cb 84 46 3e 22 16 22 bd ed 3b c1 bd d6 4b 12 be
       0.19386594 -0.03957189 -0.09435258 -0.14286742
000300 b2 7e 98 3e 70 d3 ef 3e 04 c8 c5 bd 48 b3 57 bd
       0.2978416 0.46841002 -0.096572906 -0.05266121
000310 c3 71 92 bd 2c 06 3a 3d 6f 95 38 3e e8 83 6b 3e
       -0.071506046 0.045416042 0.18025754 0.22999537
000320 b9 e3 78 be c1 db be bd 18 f9 9c 3e 7e 43 fe bd
       -0.2430562 -0.093192585 0.30658793 -0.12415217
000330 cb df 02 be 5e 75 fa bd b1 9d 24 be 95 90 72 be
       -0.12780683 -0.12229417 -0.1607578 -0.23687966
000340 69 d9 a9 bd a7 2f 20 3e 29 fb 94 3e 1a 03 4e 3e
       -0.08293421 0.15643178 0.2909787 0.2011837
000350 1a 75 ad be 07 6a 91 3c 6b 8d 6d be 2f f5 03 3f
       -0.33878404 0.017750753 -0.23198478 0.51545995
000360 20 39 26 bf 15 92 6a 3e d9 96 4f 3d 99 47 c8 3d
       -0.64930916 0.22907288 0.05068097 0.09779281
000370 68 6c 3f be 01 48 f6 3e a7 ef 38 be d7 e8 95 be
       -0.18693697 0.4810181 -0.1806017 -0.29279205
000380 cd b9 89 be 21 59 b6 3e 0d b7 97 3e 19 66 8a 3d
       -0.26899567 0.35614875 0.29631844 0.06757755
000390 56 34 71 be 18 42 be bd 0d a3 c8 be 88 37 43 3e
       -0.23555121 -0.0928995 -0.39186898 0.19064152
0003a0 6d 69 61 3d 8b 8b 35 3e 16 24 90 3e 4e f3 39 3e
       0.055032182 0.17729013 0.2815253 0.1815922
0003b0 22 65 a9 bd 9e d2 81 3e 7d 07 48 bf 1f 29 ab 3e
       -0.08271243 0.25356 -0.78136426 0.3342981
0003c0 2a 8b 04 be 36 f8 da 3c ac e5 28 3e e8 ba c6 be
       -0.12943712 0.026729684 0.16493863 -0.38814473
0003d0 6a 91 b5 be 5e 7b 29 be aa 9d 26 be 25 1c a8 3e
       -0.35462505 -0.16550967 -0.16271082 0.32833973
0003e0 19 0b d8 3d 6a 80 4e 3e 88 b2 0b be fe c3 43 3e
       0.10548992 0.20166174 -0.13642323 0.19117734
0003f0 a2 6d 0f bd e5 80 64 be ed 65 20 be 8d 58 d4 be
       -0.035016663 -0.22314794 -0.15663882 -0.4147381

model.0.bias f4 [64]
000000 91 3d fb 3c 65 71 8a 3e 60 94 52 be 7a a7 1c be
       0.030669006 0.27039638 -0.20564413 -0.15298262
000010 d3 73 a5 3e 11 e2 3e bf 6a 55 14 3e bd 05 bc 3e
       0.3231493 -0.745637 0.14485708 0.36723128
000020 84 1f 15 3e a9 85 4f 3e 44 cc 4e bf b3 f6 8d 3d
       0.14562804 0.20265831 -0.80780435 0.0693182
000030 ec 4a 04 3e 51 55 30 3e 7f 29 3e 3e 22 68 9e 3e
       0.12919205 0.17220046 0.18570517 0.30938822
000040 86 86 1d be da dd cf 3d 2d b7 e4 be 54 71 63 bf
       -0.15383348 0.10149737 -0.44671002 -0.888448
000050 db 27 73 be 17 12 5c be 49 8c b1 3e 14 95 aa 3d
       -0.23745672 -0.21491276 0.34677342 0.08329216
000060 60 52 13 bf 5d d5 94 3e 5c ff 51 bf 02 22 5d be
       -0.5754757 0.29069033 -0.8203027 -0.21595004
000070 ff 17 aa 3c 1f 19 6a be 0e b4 46 be 19 0c e0 3c
       0.020763395 -0.22861145 -0.19404623 0.027349519
000080 d8 7f c1 3e 7c a5 ca 3e da b1 8a 3e 4d 47 7b bd
       0.3779285 0.3957938 0.27088815 -0.061347295
000090 67 17 e4 be b8 f1 ce 3e a5 b1 44 3e 53 a7 4d 3e
       -0.44549105 0.40418792 0.19208391 0.2008336
0000a0 d1 70 eb 3d 56 de 59 bf bb bc a6 3d 7a 4f d4 3e
       0.114961274 -0.8510488 0.08141466 0.41466886
0000b0 c2 0f d1 be 7d 72 96 3d e7 c6 64 bf c6 3c e9 be
       -0.40832335 0.07346056 -0.89366 -0.4555418
0000c0 f5 10 37 3d 13 34 20 bd 89 85 12 3d 0a d4 93 3e
       0.044693906 -0.03911216 0.03577188 0.2887271
0000d0 16 26 1d be fe d0 77 3e 0e 6e 14 bf e1 fa 31 3d
       -0.1534656 0.24200818 -0.5798043 0.043452147
0000e0 40 bf 84 3e 6b f5 a8 3e 5e e1 fc 3d d9 e0 bb be
       0.25927162 0.3299974 0.12347673 -0.36694983
0000f0 d0 d8 f0 be f5 cd ad be 85 be 72 bd e8 98 2f bd
       -0.47040415 -0.33946195 -0.059263725 -0.042870432

model.3.weight f4 [32, 64]
000000 4b 47 8a 3d e1 61 b9 bd d9 f9 7b bd 63 0b 48 3e
       0.06751879 -0.09051872 -0.06151757 0.19535594
000010 81 e5 f6 bd 56 ec 50 be 06 10 a2 3d ca 0c 98 3c
       -0.12055493 -0.20402655 0.079132125 0.018560786
000020 e4 2b 07 bc bf c1 e3 3b 05 f6 80 3e 1b fa 8d bd
       -0.00825021 0.0069505866 0.25187698 -0.069324695
000030 3e d3 cd 3d 20 2f 88 bc 53 6d 2a 3d 1d 14 ef 3d
       0.10050057 -0.016624033 0.041608166 0.11673758
000040 52 8b 81 3d bf 8d f4 bc 4a 47 12 be 5f fa 64 bd
       0.06325401 -0.029852746 -0.14285007 -0.055902835
000050 ba 01 38 be d7 d3 98 bd 0d 46 92 be 3d 42 c8 3d
       -0.17969409 -0.0746228 -0.2856907 0.09778259
000060 65 c6 c5 bd f1 3f 33 bc 68 c3 cf 3d a2 9f 9f 3d
       -0.096569814 -0.010940538 0.10144693 0.077941194
000070 bf c5 aa 3d 9a 58 c2 be a5 9f c4 bd 5a d2 d6 3d
       0.08338498 -0.37958223 -0.09600762 0.1048934
000080 cb 66 db 3d f6 fa d5 3d 6f 9d ee bd 91 0e 0c 3e
       0.107129656 0.104482576 -0.11651122 0.13677432
000090 db 48 9b bd 86 53 e5 bc 54 91 28 be 53 4d ba bc
       -0.075822555 -0.027993929 -0.16461688 -0.02274195
0000a0 3a b3 a4 3c 2c f0 f0 bd 1b e4 85 be c8 fb 3f 3d
       0.020104993 -0.11764559 -0.26150593 0.046870977
0000b0 0f 9e 4c be bb 21 ae 3d 12 81 36 be c7 76 20 be
       -0.1998217 0.08502527 -0.17822674 -0.1567031
0000c0 e6 b0 9d 3c 9a 88 f2 3d 1f 63 02 3d ef 31 3d 3e
       0.01924939 0.11842461 0.03183281 0.1847608
0000d0 ae d9 91 3c 43 af 27 3e 58 23 8d 38 d8 5d 82 3d
       0.017803993 0.16375451 6.729987e-05 0.063655555
0000e0 d4 96 22 3d 71 22 33 3e 60 93 21 be b3 48 7a 3e
       0.039694622 0.17493607 -0.15778875 0.24441795
0000f0 ad cc 21 bc 1f 3d 67 be 35 8e 67 3d fb 66 ef bd
       -0.009875459 -0.2258191 0.056532104 -0.11689564
000100 c3 23 07 3e 5e 2a b4 bd f0 44 00 be 10 f3 0e bd
       0.13197236 -0.087971434 -0.12526298 -0.03489977
000110 74 66 84 bd 8b 99 4a bd 4a 1f d1 3c 70 be d5 3d
       -0.06464854 -0.049462836 0.025527615 0.10436714
000120 df f5 bf 3d b2 98 99 bd 75 34 7e 3d 8f ab 0a 3d
       0.09373068 -0.074998274 0.062061746 0.033855017
000130 08 47 be 3d c4 b5 c2 bd 3b 72 5b 3c b1 43 b3 bc
       0.09290892 -0.09507325 0.013393934 -0.021882864
000140 9b 9e 68 bd 6a 26 d4 3d 1a 03 d4 bd 8e b2 12 be
       -0.056791883 0.103588894 -0.10352154 -0.14325926
000150 29 25 03 be 86 ac 08 3d d1 b9 0d 3e b0 84 ba bd
       -0.12807144 0.033367656 0.13840415 -0.091073394
000160 32 d0 7f be 87 c6 82 bd 7a 9b 6d 3c 91 10 8a be
       -0.24981764 -0.06385522 0.0145024005 -0.26965764
000170 7f fb 3a be cc d9 90 3d 6a fe d8 3d 04 6e ab 3d
       -0.1826 0.070727915 0.10595401 0.08370593
000180 96 ea 9b bd 11 49 72 bd 0b f0 f4 3d fb 97 0b 3e
       -0.07613103 -0.059151713 0.11959847 0.13632195
000190 9c 07 a0 bd 60 b4 a6 3d 85 e7 30 3d 44 06 05 3e
       -0.078139514 0.081398726 0.043189544 0.12990671
0001a0 92 d2 f7 bc da a3 3e bd fc a9 f8 3d 90 fb b4 bc
       -0.030251775 -0.04654298 0.12141797 -0.02209261
0001b0 eb 98 7f be dc fa 78 3d cf 0d bd bd ff 2a bd 3d
       -0.24960677 0.060786113 -0.092311494 0.092367165
0001c0 8d 96 ad bc 9c d5 1e 3d 73 80 02 3e 26 85 07 3c
       -0.021189952 0.038777933 0.12744312 0.008271491
0001d0 9b 2d 6f 3c 94 e1 1c 3e d5 bc 0f be ce 2c 24 3e
       0.014598276 0.15320426 -0.14036877 0.16032717
0001e0 c5 e1 ac bc b8 b9 df bb 9a bf b9 bd f8 04 ab bd
       -0.021103749 -0.0068275593 -0.09069748 -0.08350557
0001f0 25 d7 b0 be d8 28 86 be fa 49 dd 3c b4 ae 24 be
       -0.34539142 -0.26203036 0.027012814 -0.16082269
000200 47 e3 8b bd 0e e8 0e 3e 95 e1 0a be 77 01 08 3e
       -0.06830459 0.1395571 -0.13562615 0.13281809
000210 af 8c 91 bd 18 f9 24 be 48 49 98 3c 08 17 8c 3c
       -0.071069114 -0.16110647 0.01858963 0.017100826
000220 cc 7b b5 bd 4a 83 5b 3d 3b 00 3b 3e 35 41 13 bd
       -0.08861503 0.053592004 0.18261807 -0.03595086
000230 fb de 7e 3d 42 8e 5b bd d1 10 f5 3d ba 6d 9f 3d
       0.06222437 -0.053602464 0.11966098 0.077846006
000240 c9 d6 c4 bc e9 a7 c8 bd ae 96 d2 bd 11 2b 72 be
       -0.024028199 -0.09797651 -0.10282646 -0.23649241
000250 37 f0 f4 bd fc 1d 0d 3e 51 27 67 bd 64 da 0f 3e
       -0.1195988 0.1378097 -0.05643398 0.14048153
000260 84 dd bf bd ab 79 18 be 52 96 78 3c 68 bb 64 bd
       -0.093684226 -0.14890163 0.015172558 -0.055842787
000270 07 59 f1 3c 5e b4 99 bc 90 21 bb bd 2e fe 2e 3e
       0.029461397 -0.018762764 -0.09137261 0.1708915
000280 75 63 71 bd 63 88 d4 3d 1f 64 9c bd c1 aa 8c 3d
       -0.05893274 0.10377576 -0.07636284 0.06868506
000290 75 54 29 be 2c c3 3f bd c1 94 0e 3d 8c a9 06 3d
       -0.16536124 -0.04681699 0.03480983 0.032876536
0002a0 a8 7b da 3d 72 f8 12 be 00 70 6c be 22 b6 53 3d
       0.10668117 -0.14352587 -0.230896 0.051687367
0002b0 bc db 2b be 77 0a 62 3d 27 76 91 bc b1 7c c4 bd
       -0.16783041 0.05518576 -0.017756535 -0.095940955
0002c0 cd b8 25 3e b0 c6 38 3e 3e 91 d9 bc e5 b8 13 3e
       0.16183777 0.18044543 -0.026558515 0.14426
0002d0 8d e7 3d 3c ca 0e 24 3e e5 89 00 be b2 4e 12 be
       0.011590851 0.16021267 -0.12552603 -0.14287832
0002e0 ec ec 9a bd 5b 81 80 3d 00 2f 88 3d 36 89 3a bd
       -0.075647205 0.062746726 0.066495895 -0.04554101
0002f0 c4 1b 2e bd ed ee 5e be 7e 9d d5 3d 4d d7 7b 3c
       -0.042506948 -0.2177083 0.1043043 0.015371156
000300 50 85 4e be 9e 73 18 be 14 4a 93 bc 1e 16 f2 bc
       -0.20168042 -0.14887854 -0.01797966 -0.029551562
000310 48 1c 1d be 51 34 27 3e f2 1d b3 bd 83 1f 40 be
       -0.1534282 0.16328551 -0.08745946 -0.18762021
000320 de 82 ed bd 94 10 54 be ca 31 46 be 74 4d c0 be
       -0.115972266 -0.20709449 -0.1935493 -0.37559092
000330 ec a3 ec bd b5 40 5c be c8 2d d4 bd 63 5a 27 be
       -0.11554703 -0.21509059 -0.103602946 -0.16343074
000340 62 37 8e 3b d5 21 57 bc a7 cf ea 3c 8f be 26 3c
       0.0043400982 -0.013130625 0.02866347 0.010177269
000350 c5 03 15 be 0d 8a 80 3d 90 e2 43 be 78 44 55 bd
       -0.14552219 0.06276331 -0.19129395 -0.05206725
000360 7d 73 49 3d 08 c2 bb bd d7 ff 2c 3e 80 f9 5d bc
       0.049182404 -0.09167868 0.1689447 -0.013548255
000370 ef 4e 72 be b1 b1 14 bd b5 87 fe 3c cd 58 2e be
       -0.23662923 -0.036302272 0.03107057 -0.17026062
000380 50 ea 61 be b0 48 79 bd 1e d2 20 bd 84 ac 2d bd
       -0.2206204 -0.060860336 -0.039262883 -0.04240085
000390 6a 7a 94 bc ac 1c 6a be 1b 86 0b be 5e ba 2a bd
       -0.018124778 -0.228625 -0.13625376 -0.04168164
0003a0 63 2f b4 bd 34 91 ed ba c0 80 0a be 1f f1 4b be
       -0.08798101 -0.0018124939 -0.13525677 -0.19916199
0003b0 de 6e e4 3c 41 6b 29 be e1 97 f9 3d a5 f2 40 bd
       0.027884897 -0.1654482 0.12187172 -0.047106404
0003c0 e2 90 8f bd af 4b 08 3d 90 9c 0d be 8c a8 d8 bd
       -0.07010056 0.033275302 -0.13829255 -0.10579023
0003d0 c8 4d 87 bb b8 0f 6e bd 31 50 02 3e b2 67 cb bd
       -0.0041291453 -0.05812046 0.12725903 -0.09931888
0003e0 c4 5f 98 be 76 ef c8 bd 58 d3 8d bd 71 ac 59 bb
       -0.29760563 -0.098112985 -0.06925076 -0.0033214355
0003f0 dc 9f 48 3e 9a 2a 50 3e 22 41 96 3c 52 af c6 bd
       0.19592232 0.20328751 0.018341605 -0.097014084

model.3.bias f4 [32]
000000 34 bc 95 3d b9 73 7a 3e 85 70 9f 3e 93 d1 88 3c
       0.073112875 0.24458207 0.31140533 0.016701495
000010 14 f4 88 3e 07 62 0b be 9b bd b2 3e cd e2 a0 bd
       0.26748717 -0.13611613 0.34910282 -0.07855759
000020 c4 23 98 3e 79 54 02 be 7e 90 13 3e 9d 21 97 3c
       0.29714787 -0.12727536 0.14410588 0.018448645
000030 d6 96 ca 3c f2 08 73 3e 0f 5f 98 3d c0 13 a2 bd
       0.024730127 0.23733881 0.07440006 -0.07913923
000040 77 81 05 3e 10 ac 5f 3e fd 24 7d 3e 43 4d dd bd
       0.13037668 0.2184298 0.24721141 -0.10805752
000050 01 de 89 3e 8c 40 13 be 67 c2 85 bd 0c da 7b 3d
       0.26927188 -0.14380091 -0.0653122 0.061487243
000060 38 26 65 3e 3d d6 93 3e 33 42 d4 3c 6e 3b 80 3e
       0.2237786 0.28874388 0.025910472 0.2504534
000070 eb c1 72 b9 08 6b a9 3e b4 a1 7a 3e 9b 9a 91 3e
       -0.00023151159 0.3308947 0.24475747 0.28438267

model.5.weight f4 [1, 32]
000000 80 37 90 3d af 39 32 3e 4a 06 69 3e f7 db b8 be
       0.07041836 0.17404817 0.22756305 -0.3610532
000010 c7 10 e4 3d bf 51 dc be d4 9b 20 3e f7 86 fa be
       0.111360125 -0.43031117 0.15684444 -0.48931095
000020 7d c7 09 3e c0 cf bb be 60 4c d0 3d 5f e0 27 3d
       0.13455005 -0.36681938 0.101708174 0.04098546
000030 68 bc e6 be 7c 4f 0b 3e 4a 43 25 3d c3 a3 fd be
       -0.45065618 0.1360454 0.040347375 -0.49539003
000040 b0 a5 44 3e 3f 2b 4c 3e c4 df 3a 3e cf 41 c8 be
       0.1920383 0.19938372 0.18249422 -0.39112708
000050 2c 99 1f 3e 13 d2 cc be fc 72 a0 be 7c 26 fa 3d
       0.15585774 -0.40004024 -0.31337726 0.122143716
000060 e6 dc fc 3d 5b f0 1a 3e 0d a8 02 bf b9 cf 6b 3e
       0.123468205 0.15130751 -0.51037675 0.23028459
000070 af d3 c4 be 32 18 7a 3e 5d 79 50 3e e5 a7 5f 3e
       -0.38442752 0.24423292 0.20358796 0.2184139
